nlp/core/lstm_trained.pt (torch, 157015 bytes, 4 tensors)

weight_ih_l0 f4 [276, 69]
00000000: d087 3f3e 4a32 6d3d 958e a33b 7289 4f3d
00000010: 138e debd 198f 34bd 92c0 743d 890d 313e
00000020: 51c2 a2bd cefd cb40 e0d3 af3c ef6c faba
00000030: 02bd ad3d c382 8d3d df48 e0bc c09d 163e
00000040: 75a1 db3d b0e1 993d 2b75 013d 1911 003d
00000050: ce48 3f3d 6442 853d 9895 42bd 4c7e c43e
00000060: 5ace ddbd 8141 d43d 7b0c 3dbd 515b 663e
00000070: c10d 96bc a80e 123e 9325 5a3c 567f f13b
00000080: 0f6a 1c3d 6047 b13c d39a 40bd 3f37 1fbd
00000090: af1f e33d 8472 97bd b1d0 133f ced4 093e
000000a0: 3833 c33c 6591 21bd 4c1f b83d cd69 563c
000000b0: 7aea b93d ad01 383e 9104 1fba ef49 15bd
000000c0: abd7 39bd d347 083d 5008 9bbc 1e6f fe3d
000000d0: 4ce3 1a3e 58f8 3fbd a722 4fbd d28d f23d
000000e0: 1838 543d 61d3 6fbd 734b 8b3d 321f 89bc
000000f0: 6b8f f83d 18f5 c3bd dbc1 943e 6f06 0b3e
00000100: e99c 31bd 7856 48bd c2ba a33c 5910 d93e
00000110: 7a3b b53d e404 563e a0f7 0c3f b9ff 503e
00000120: 1de6 993e d943 bebd 494e d63c 1b11 453e
00000130: cec2 813e e30a 9fbd 94e9 f640 7955 023e
00000140: a8c0 b2bd cdfb af3e 09bb b73d e318 e4b8
00000150: a943 b73d f47e 223f d17e 4c3e 3b6d 42be
00000160: 366f 9f3d 8720 a03e c618 97bd 53af 4abd
00000170: 6a94 753f e676 343d 0641 983d 3407 113e
00000180: 8490 2c3c ebb4 023e 5cfd 853e d231 9d3e
00000190: b797 adbe 66bb 8a3e 3086 90bb a7e5 6a3f
000001a0: 1a59 cb3d c7ab 763e 9d85 35be a265 883f
000001b0: a584 4e3e 66d6 1a3e 97fd d03d b787 6bbd
000001c0: e3d0 063f a915 583e 39fa 913e 0f2b df3e
000001d0: 9131 893e 2d81 6c3d 221e 45be 2277 9ebd
000001e0: ddad 9fbe 71b9 8b3e 1ed6 32bb 628e 66bc
000001f0: 6653 233e dd6c a33e 3233 da3d 9a08 1f3e
00000200: 6cc1 8e3e cd8c 113f d64c a8be 868f ab3e
00000210: 8b17 ae3e 7523 ba3d fb1b 4e3e d6fa 933d
00000220: 90ce 5d3f fe88 6dbc c907 d53d cf94 813d
00000230: 0c73 353e afee 013e 01a4 25bc 7be9 b13d
00000240: 8d02 87bd b92e c33d 2849 1a3d 34b6 a140
00000250: f67d dbbb d7bf ffbb e718 ea3d bc39 373d
00000260: 3293 8b3d b84d 693d ffc6 b23c 17b9 32bd
00000270: b704 f8bb 5f4f e33d d08e e23c 6eac 6cbd
00000280: 26fa 963d a1a5 bf3e 7207 473d 82de 0f3e
00000290: 5152 a13d 3189 993e fdfe 04bd 4f6a 813d
000002a0: 50d3 8e3d 8f33 4f3e dc4f 03bd 829a a43d
000002b0: 26c2 0f3c 1017 47bd 82c9 8d3c ea7d b73d
000002c0: d5c2 833e 0938 113e a181 993d 46fb acbb
000002d0: e6ba ae3d d690 333e f22d fd3d 514a 0f3e
000002e0: 22e8 e63c 01cd dc3d ae06 17bb 9e01 d2bd
000002f0: 62c9 ca3a 95d2 cf3c 1d39 1cbd 72c1 1a3d
00000300: dd11 d8bb 4947 b5bd b4a7 b63d 4b8f ea3a
00000310: 1b09 d93d fcde 2b3d 11e8 763d ea17 523c
00000320: ba2e b43e 7ce5 c8bd ce62 b7bd f557 773d
00000330: 4e21 293d 92f6 953e 08a7 1d3b 36e9 e23d
00000340: 96b1 f23d 3bb8 40bd ae31 0d3e b7d0 f53d
00000350: e4db a63b eff6 ecbc 960f c03d ce4a 0cbd
00000360: 03f9 b240 6b39 033e 43f6 a33d 944a 553e
00000370: 5216 083e 9a16 c33d 38d1 073d 55e9 853d
00000380: a10f e93d 487a 693c 1554 533d e6df 1ebd
00000390: c65f d83d af9b b73c bf46 9f3e 3d75 cbbd
000003a0: e1b5 56bc 8884 953d 882d b53e c49c bd3d
000003b0: a17c 9e3d 3e57 043e ed69 b53d 8d66 36bd
000003c0: f893 823d 234e af3d e87c 92bd c8c8 d53c
000003d0: 77db 3abd ac73 b33e 76c6 0b3e a40b 0f3e
000003e0: b26b 11bd c633 c7bc c635 28bd 1a4e 033e
000003f0: 4c6e 843d 80c2 043e 692d a1bd ff5a 8cbc
0.18704152 0.057909288 0.0049913623 0.050668187 -0.10866942 -0.04408178 0.05975396 0.1729032
-0.07947219 6.374732 0.021463335 -0.0019105951 0.08483316 0.069097064 -0.027378498 0.14708614
0.10724155 0.075137496 0.03160588 0.031266306 0.04670029 0.06506804 -0.047505945 0.38377607
-0.10830374 0.103640564 -0.04615448 0.22495772 -0.018317105 0.14263403 0.013314622 0.007369916
0.038187083 0.02164048 -0.047022652 -0.038871046 0.110900275 -0.07394889 0.5774031 0.13460085
0.023828134 -0.0394453 0.089903444 0.013086748 0.09077926 0.1796939 -0.0006066049 -0.03644746
-0.045371693 0.033271622 -0.018924862 0.12423538 0.1512577 -0.0468677 -0.050570156 0.11843456
0.051811308 -0.058551196 0.068015 -0.016738508 0.1213673 -0.09568232 0.2905415 0.13576673
-0.04336253 -0.048910588 0.019986514 0.42395285 0.08849235 0.20900303 0.55065346 0.2041005
0.30058375 -0.09290285 0.026160376 0.19244806 0.25343937 -0.07765748 7.716013 0.12727918
-0.087281525 0.34371796 0.08971221 -0.00010876523 0.08948452 0.63474965 0.19970252 -0.1898698
0.07784884 0.31274816 -0.07377772 -0.04948361 0.95929587 0.044058703 0.07434277 0.14162904
0.010532502 0.12764327 0.2616986 0.30702072 -0.33904812 0.270961 -0.0044105276 0.9175667
0.09929104 0.24088965 -0.1772675 1.0656016 0.20167787 0.15120849 0.102046184 -0.057502475
0.52662486 0.21102013 0.28511217 0.4358754 0.2679563 0.05774038 -0.19249776 -0.077375665
-0.31187335 0.27289918 -0.0027288268 -0.014072033 0.15949783 0.31918994 0.10654296 0.15530625
0.27881944 0.5685547 -0.3287112 0.33507937 0.34002337 0.09088794 0.20127861 0.072255775
0.86643314 -0.0144979935 0.104018755 0.06327211 0.17719668 0.12688707 -0.010109902 0.08687111
-0.065922834 0.09530396 0.037667423 5.0534916 -0.0066983653 -0.0078048515 0.11430531 0.044732794
0.06815185 0.056958884 0.021823404 -0.043633547 -0.0075689214 0.11099123 0.027655989 -0.05778163
0.07371931 0.37431052 0.048591085 0.14049724 0.07877029 0.2998748 -0.03246974 0.06319105
0.069738984 0.20234512 -0.03205858 0.080372825 0.008774316 -0.04860598 0.017308 0.08959563
0.25734583 0.14181532 0.07495428 -0.0052789776 0.08531742 0.1753572 0.12362279 0.13993193
0.028186861 0.10781289 -0.0023044753 -0.10254215 0.0015471394 0.025368968 -0.038140405 0.03778214
-0.0065939263 -0.08851487 0.089187056 0.0017895488 0.1059744 0.0419607 0.06027991 0.012823084
0.351919 -0.09809396 -0.089543924 0.060386617 0.041291527 0.2928968 0.0024055857 0.11079638
0.11850278 -0.047050696 0.13788483 0.120027 0.005092131 -0.02892634 0.09377973 -0.034251027
5.592897 0.12814872 0.08005955 0.2082923 0.13289765 0.09525795 0.03315851 0.06538645
0.11379934 0.0142503455 0.05159386 -0.038787745 0.10565142 0.022413103 0.31108662 -0.09934471
-0.013104887 0.07300669 0.353863 0.09258416 0.07738615 0.12923905 0.08858094 -0.044531394
0.06375879 0.08559825 -0.0715273 0.026096717 -0.045619454 0.35049188 0.13649926 0.13969284
-0.035503097 -0.02431668 -0.041066907 0.12822762 0.0646635 0.12964821 -0.078699894 -0.017133234

weight_hh_l0 f4 [276, 69]
00000000: 4095 a3be 47d1 59be ded7 23be 46f0 8fbe
00000010: 509e 5bbe 036f 9abe 93fe 97be 15e8 97be
00000020: 65b0 22be 5304 fcbd e997 8cbe 5b5a 11be
00000030: 20ea 633e 8dee 9cbe d88c 18be 893f ddbe
00000040: 1148 44bd b9b7 c6bd 3c48 8fbd 8dc1 37bd
00000050: b30b e6bd 7172 80be 0f7d 0bbe 1f5e 7d3e
00000060: 3bf0 66bb 50f5 9abe 7389 bdbd 6e4b 33be
00000070: bb9f 96be 8ee8 13be 61c2 dabc 3aaf 273d
00000080: 1eef 8bbe f664 f1b8 f560 c5bd 8564 77be
00000090: 192a 48be 55c0 80bd 89bb 573e 9927 98bd
000000a0: d643 9fbc d461 47be bab3 8dbe b437 56be
000000b0: 8269 03bd 1494 8cbe e060 00be 7dba 0dbe
000000c0: fd09 53be 427f c9bd c71e 143d 1457 7cbd
000000d0: 3732 0abe 0280 643a a694 25be 421c 4dbe
000000e0: dfc0 4bbe c4d1 84be 4fe3 223e 723a 53be
000000f0: a56f 953d 9485 3dbd ed13 1b3e d0dc 79be
00000100: b1fa 0fbf 0359 26be 7a96 7ebe 5568 613e
00000110: 4266 d4bc 61b9 35be 9edb 13be 22c2 7cbe
00000120: 32d2 65be 08bb 93be d7af 86be ddcb 89be
00000130: 8e77 a0be 0c50 94be 06c5 7fbe b7e1 70be
00000140: 956f 80be 70d8 94be 5a54 cbbe 2890 a4be
00000150: 04cd 0cbf bf06 07be 9663 e2bd 2222 a8be
00000160: f563 8abe 9d33 babe bcdc 31be 168b eb3d
00000170: d120 e9bd 41b0 2bbe 6600 67be 76a3 ffbd
00000180: 77e9 afbe 3678 bbbe 8f22 c1be 2440 39bc
00000190: bcc4 23bd 6b3e bebe 902d 7dbe a290 f0bd
000001a0: 789c babe f2d6 22be 9a65 363e d4e4 2abe
000001b0: 0d42 8cbe 9b8c 92be 81ba a2be 0529 e23d
000001c0: 9394 70be 7176 63be 05e6 46be be44 88be
000001d0: ce5a 0c3e 92b0 71be 89ba 3e3e af51 2e3e
000001e0: b909 c5be 0b42 5abe 396b ecbe 84a2 51be
000001f0: 029a c1be 6b31 cfbe c155 7ebe f054 173e
00000200: bd77 13be 9a20 3b3e 349b d5be 9739 40be
00000210: d5a2 53be e651 aebe 8719 34be ebb5 9abe
00000220: 0aca 5abe 797b 27be 100d 3bbe 2d83 8fbe
00000230: e248 c4be 1212 e6bd b75f 28be 552c 22be
00000240: 023c 17be 00eb 93be 3a9d 31be 020a 25be
00000250: ef84 0dbe 6cd7 93be 4c59 bd3d fa79 97be
00000260: 5612 2ebe 7d80 53be ceea 18bd 36e0 953d
00000270: 33dc 80bd d16b afbe f8ee ebbe bcfe 58be
00000280: e1ed bd3d 0752 ae3d 67e2 0abe 8224 33bd
00000290: 88f7 00be 2cc0 42be 0cab 19be dcb8 80bd
000002a0: 4385 a93d c996 213e 6f47 2fbe 0409 01bd
000002b0: 7755 613d 2d7e 07be 2ead e2be 70bd 80bd
000002c0: 8637 2e3e 0c2b b2be 665d d9be 2ed1 24be
000002d0: 5c43 0ebe f0a8 71be ab0a 12bf 0009 a2be
000002e0: f63a 90be c60b 16bd 5ed6 07be 762e c73d
000002f0: 7f6d 7e3c 65d0 243d 4b0d 0fbe 3464 003e
00000300: 15f6 b1be adc2 dbbd 52f8 e4bd bdab 87be
00000310: ee74 583e 08a8 5ebe eef3 023e 53c6 713d
00000320: 6d40 4a3d 5afb 89be 1fb2 55be bd1a a7bd
00000330: 946b afbe 1add cd3d 1b73 363e 0454 7cbe
00000340: b97a d4be 5ce2 f8be 7f38 36be 3f47 9abe
00000350: 4799 bcbd 84dd a4be 8724 4bbe 8bf3 1bbe
00000360: 6ba8 f9bc c66c 72be 0757 5fbe df31 b83e
00000370: 0f1a 94be db7e 2abe 0752 07be b8bb 1a3d
00000380: 82b6 c93d d7e3 c03c f313 44bf f909 14be
00000390: e9e6 92be 5c96 aa3d 3201 0f3e e420 05be
000003a0: ea6e 15be 7bfb 07be 8e53 9f3c 6030 b3bd
000003b0: ff4e 8fbe f00a f33c 5f68 1cbd b771 8abe
000003c0: 38c7 563c 5d01 c2bd c750 f4bd 4c43 f5bc
000003d0: 9537 5fbd ccd0 d63e 1c01 ffbe a663 28bf
000003e0: 4866 49be f41e ffbd 49bd 85be caf0 4cbd
000003f0: 99af 9fbe 6688 81be 7c25 edbc 3b1b 63bd
-0.31949806 -0.21271239 -0.16000316 -0.28113002 -0.2144711 -0.3016282 -0.29686412 -0.29669252
-0.15887602 -0.12305512 -0.27459648 -0.14194624 0.2225728 -0.3065075 -0.14897478 -0.43212536
-0.04792029 -0.09703011 -0.069961995 -0.04486232 -0.112327 -0.25087312 -0.13621925 0.24742936
-0.0035238403 -0.30265284 -0.09254732 -0.17509243 -0.2941874 -0.14444181 -0.026704015 0.040938593
-0.2733087 -0.00011510581 -0.09637634 -0.24159439 -0.19547309 -0.062866844 0.21067633 -0.07429428
-0.019441526 -0.19470912 -0.27676183 -0.20919687 -0.032083042 -0.27456725 -0.12536955 -0.13840671
-0.20609279 -0.098387256 0.036162164 -0.06160648 -0.13495718 0.00087165844 -0.16169986 -0.20030311
-0.19897793 -0.25941288 0.15907024 -0.20627764 0.07296685 -0.04626997 0.1514432 -0.2440064
-0.562419 -0.16244893 -0.2486209 0.22012456 -0.025927667 -0.17746498 -0.14439246 -0.24683431
-0.22443464 -0.2885363 -0.2630603 -0.26913348 -0.31341213 -0.2896732 -0.24977502 -0.23523603
-0.2508513 -0.2907138 -0.39712793 -0.32141232 -0.5500033 -0.13186167 -0.11054151 -0.3283854
-0.27029386 -0.36367503 -0.1736936 0.11501138 -0.11383212 -0.16766454 -0.22558746 -0.124823496
-0.34357807 -0.3661515 -0.3772168 -0.011306796 -0.039982542 -0.37156996 -0.24724412 -0.117463365
-0.364475 -0.15902308 0.17812195 -0.16688854 -0.27394143 -0.28622898 -0.31782916 0.1104298
-0.23494177 -0.2221315 -0.19423683 -0.26614946 0.13706514 -0.23602512 0.18625845 0.17023347
-0.3848398 -0.21314256 -0.46175554 -0.20472151 -0.3781281 -0.4046739 -0.248374 0.14778495
-0.14401145 0.18274155 -0.41719973 -0.18771969 -0.20667584 -0.3404686 -0.17587863 -0.30216917
-0.21366134 -0.16355695 -0.18266702 -0.28029767 -0.38336855 -0.112339154 -0.16442762 -0.15837224
-0.14768985 -0.28890228 -0.17345133 -0.16117099 -0.13820241 -0.2887529 0.09245548 -0.29585248
-0.16999182 -0.20654483 -0.037333302 0.073181555 -0.06292 -0.34261945 -0.46080756 -0.21190923
0.092738874 0.08511739 -0.13562928 -0.04373599 -0.12594426 -0.1901862 -0.15006655 -0.06285259
0.08277371 0.15780176 -0.17117094 -0.03150274 0.055013146 -0.13231726 -0.4427275 -0.06286132
0.17013368 -0.34798467 -0.4245407 -0.1609542 -0.13892883 -0.23599601 -0.5704753 -0.3164749
-0.28169984 -0.03663232 -0.13265368 0.097256586 0.015529036 0.040237803 -0.13969915 0.12538224
-0.34758058 -0.10730491 -0.11180176 -0.26498213 0.21138355 -0.21743786 0.12788364 0.059027027
0.049377847 -0.2694958 -0.20868729 -0.08159397 -0.34261763 0.100519374 0.17817347 -0.24641424
-0.4149988 -0.48610198 -0.17794989 -0.3013248 -0.09208923 -0.32200253 -0.19838153 -0.15229623
-0.030475816 -0.23674306 -0.21810542 0.3597555 -0.2892613 -0.16649954 -0.13214885 0.03777668
0.09849264 0.023546143 -0.7659294 -0.1445693 -0.28691795 0.0832946 0.139653 -0.13000828
-0.14593092 -0.13279526 0.019449022 -0.08749461 -0.27989957 0.029668301 -0.038185474 -0.27039883
0.013109021 -0.09472916 -0.119294696 -0.029939316 -0.054496367 0.41956174 -0.49805534 -0.6577705
-0.19667923 -0.12457076 -0.26120976 -0.05003432 -0.31188658 -0.25299376 -0.028948538 -0.05544589

bias_ih_l0 f4 [276]
00000000: ba32 3f40 08b1 ee3f cc06 6340 3ee2 5940
00000010: 020f 7340 5594 4e40 5eb8 7140 5caa 5240
00000020: 0b34 4540 83e1 3940 dcdc 6a40 ee44 6640
00000030: fe74 8840 749d 5e40 b1cc 3e40 588b 6c40
00000040: c9dd 0b40 6486 7040 d3d5 7f40 87cc 6940
00000050: 492f 6940 947a 6740 9200 7440 7578 9f40
00000060: f3e0 4540 c1e3 3a40 81ed 5840 3fb0 4740
00000070: 0487 503e c26a 6f40 1817 6940 970f 4b40
00000080: efe1 5840 2c09 f33f dc57 5340 ee76 3f40
00000090: e293 3640 8790 2c40 78b3 9240 8067 7b40
000000a0: 3dac 7740 af43 5440 e4ec 6e40 b67e 4440
000000b0: 60a5 6040 95d6 7840 e73c 3c40 4330 6c40
000000c0: 0439 5140 d9f1 6d40 13fe 5c40 b71e 7040
000000d0: 46b7 6340 fae7 abbb 1100 6e40 e383 5740
000000e0: 780e 4a3f e21b 6c40 e409 4f40 df9a 7040
000000f0: 0d32 6d40 3c14 5b40 f8c7 a93f 7e4b 5c40
00000100: a5fe 3540 6ff5 6f40 b521 6740 4d28 9d40
00000110: 18c8 5840 32ae 813e 1000 443d e343 713e
00000120: 9edc 783e 3286 423e 13c1 523e 7683 7d3e
00000130: 04af 823d cc17 403d 0902 5c3e 7e9b 3f3e
00000140: 9f74 403e 0c54 933d 5a67 2b3e 65a4 383e
00000150: 112b 8b3c 4004 22ba 33cc b83d 0201 9a3e
00000160: baee cb3e 202c 853e c501 fa3d 5d1f c73e
00000170: d526 1bbf 4239 943e f760 843e 4b38 713e
00000180: d09a 083e 15f3 f23d 5a2a f53d 700b 653e
00000190: 03f4 353e e7e1 643e e7f5 4b3e a29f 913d
000001a0: 985f 0f3e 5566 af3e a085 083d 14c4 28bf
000001b0: 0ce1 833e bef5 a53e 91ff 313e 34e0 043e
000001c0: 1095 183e 1a08 6e3e 23e6 7b3e 262f a8bd
000001d0: d5a2 f83d a68f 883e 7603 853e b988 383d
000001e0: 06d4 b53d 560b 6b3e 3744 9a3d 9986 423e
000001f0: c73e 6b3e e174 1f3e f9ef 433e 541c 883e
00000200: 196a 903e dc0f 553e d95b c03d 8d56 c7be
00000210: 74c8 7d3e 0f91 0d3e c66b 433e 3039 003e
00000220: 603b b0be e3d1 133c e360 b1bf 5eb5 d2bd
00000230: 53e1 03c0 e553 bcbf 3528 c2bf 1b9b c3bf
00000240: bf96 c7bf e619 a7bf 26d8 c2bf d194 b0bf
00000250: 968d bfbf 6341 dbbf 68e8 d73e 8438 ccbf
00000260: 0a68 b2bf a4f9 4fbe 6296 e0bc 01f5 10c0
00000270: b89c 0bc0 96ef 03c0 4e1f 00c0 4554 c7bf
00000280: 0958 9bbf ad0c 2f40 925b eebf 4329 abbf
00000290: f294 e1bf 412e e7bf 4dd7 bebf 9a5f fabf
000002a0: d5fb 3fbd a405 273e 8bd6 c6bf 5394 bfbd
000002b0: ed65 21be 66cf 95bf f86e e6bf 5372 8ebe
000002c0: 38d5 1e40 eb7f f7bf 0c4a f4bf 7e1c ddbf
000002d0: 5523 bdbe 0e0b c3bf bab6 fdbf 1202 f4bf
000002e0: 2e8e 93be e92c c8be af23 05c0 c4e8 04be
000002f0: 7238 85be e214 82bc da9f c5bf 0d0c 243e
00000300: 10f4 01c0 a50d b4bf 5221 e1bf 6ea2 f6bf
00000310: afbe be3f 50b5 d6bf a6ef cd3f b021 99bb
00000320: 52fa 473f 7dfd f9bf d6f6 94be 5693 07c0
00000330: e35a a4be 7c14 1f40 35c8 4abd 628c 3240
00000340: cd51 2640 892f 2e3f 5918 3a40 0428 6740
00000350: c736 5440 c827 5e40 12c0 5640 b88c 3840
00000360: a7cd 3540 cbe9 5b40 8a84 6f40 31bc 78c0
00000370: 9866 4040 05d9 3640 8dcd 7040 8259 753f
00000380: 4cc4 f63f 2e93 db3e a6f6 4e40 83ed 4c40
00000390: 036f 5240 21d2 1e3f 1759 a140 81ce 4640
000003a0: a9b4 2640 f478 3b40 9a73 57c0 1865 0540
000003b0: e1da 6d40 c295 4940 dedd 42bf 20d3 3740
000003c0: f641 6640 e3d8 4340 f231 2a40 0320 3740
000003d0: d3c0 813e 28aa 9540 07c5 f23f 125b 5340
000003e0: d26f 3d40 c058 3f3e 5162 1c3f 3e84 3c40
000003f0: 2590 6640 fbd4 4e40 5b25 cf3e 0075 3a40
2.987471 1.8647776 3.5472898 3.4044337 3.797791 3.2278035 3.7768779 3.291648
3.0813015 2.9043891 3.6697302 3.5979571 4.2642813 3.4783602 2.9812434 3.6960049
2.1854117 3.7582026 3.9974258 3.6531084 3.643511 3.6168566 3.8125348 4.983454
3.0918548 2.920151 3.389496 3.1201322 0.20364004 3.740891 3.6420345 3.1728265
3.38879 1.8987174 3.3022375 2.991634 2.852776 2.6963212 4.584408 3.9281921
3.8698876 3.316631 3.7332087 3.0702338 3.5100937 3.888097 2.9412172 3.6904457
3.269105 3.7178862 3.4530075 3.7518747 3.5580611 -0.0052461596 3.718754 3.3674247
0.7892833 3.6892018 3.2349787 3.7594526 3.7061799 3.42311 1.3264151 3.4421077
2.8436673 3.749355 3.6114323 4.9111695 3.3872128 0.25328213 0.047851622 0.23561053
0.24302909 0.18996504 0.20581464 0.2475718 0.06381038 0.046897694 0.21485151 0.1871166
0.18794487 0.07193765 0.16738644 0.18031462 0.01698831 -0.0006180443 0.09023323 0.30078894
0.3983057 0.26010227 0.12207369 0.38891116 -0.6060613 0.28949934 0.25855228 0.2355663
0.13340306 0.118627705 0.119709685 0.22367644 0.17768864 0.223518 0.19918023 0.07110526
0.1400131 0.3425776 0.03333056 -0.6592419 0.25757635 0.3241405 0.17382647 0.12976152
0.14900613 0.23245278 0.24599509 -0.08212118 0.12140433 0.26672095 0.25979203 0.045052264
0.08878331 0.22953543 0.07532542 0.18996657 0.22973166 0.1557193 0.19134511 0.26584113
0.28205946 0.20806831 0.093925186 -0.3893322 0.24783498 0.13824867 0.19084081 0.12521815
-0.344203 0.009022209 -1.3857692 -0.10288499 -2.0606277 -1.4713103 -1.516852 -1.528171
-1.5592879 -1.3054779 -1.5222213 -1.3795415 -1.4965084 -1.712933 0.421695 -1.5954747
-1.3938 -0.20310074 -0.027415458 -2.2649539 -2.1814404 -2.0614982 -2.0019107 -1.5572592
-1.2136241 2.7351487 -1.8621695 -1.3371967 -1.762358 -1.806099 -1.4909455 -1.9560425
-0.046871025 0.16310745 -1.5534223 -0.093544625 -0.15761538 -1.1703918 -1.8002615 -0.27821597
2.4817638 -1.9335912 -1.9085097 -1.727432 -0.3694102 -1.5237749 -1.9821389 -1.9063132
-0.28819412 -0.39096764 -2.080303 -0.12979418 -0.26019627 -0.015879098 -1.5439408 0.16020222
-2.0305214 -1.4066664 -1.7588294 -1.926832 1.4901942 -1.6774082 1.608876 -0.0046732053
0.78116333 -1.9530483 -0.2909457 -2.1183677 -0.3210059 2.4856253 -0.04950734 2.7898183
2.5987427 0.6804128 2.907736 3.6118174 3.3158433 3.471178 3.355473 2.8835888
2.840677 3.4361446 3.7424645 -3.8864863 3.0062618 2.8569958 3.7625458 0.95839703
1.9278655 0.42885727 3.2338042 3.2019966 3.2880256 0.6203938 5.042125 3.106354
2.6047766 2.9292574 -3.3664308 2.0842953 3.7164843 3.1497655 -0.7611979 2.872261
3.597776 3.0601127 2.6592984 2.8613288 0.25342426 4.677021 1.8966378 3.3024335
2.95995 0.18686199 0.6108752 2.9455714 3.602548 3.2317493 0.40458187 2.913391

bias_hh_l0 f4 [276]
00000000: 73e6 3540 0b60 f53f 4721 6f40 7779 5c40
00000010: 9890 6940 5c10 5b40 b840 6e40 1254 5d40
00000020: 34f2 4340 9965 4140 15eb 5f40 9092 6c40
00000030: be4e 8440 de0c 5640 a7bf 3b40 4e2f 7940
00000040: 0ebb 0740 6961 6f40 6915 8040 54aa 6340
00000050: c88c 6240 9047 6e40 c344 6f40 7595 9d40
00000060: addf 4940 09a1 3940 bd81 5940 3923 4d40
00000070: 1e4a 863e 14d7 6440 d852 6f40 8f55 4640
00000080: 1cd7 5540 a73e f93f 70cb 5840 855f 4040
00000090: 3c24 4140 0a24 3840 e1ca 9440 1326 7840
000000a0: 83d1 7240 a4ad 5e40 8802 6e40 d326 3f40
000000b0: bdb8 5740 bdd5 7740 1981 3e40 9cb8 7640
000000c0: 17d3 5040 8544 6940 50da 5b40 3ae5 6f40
000000d0: ce0d 6740 0ecf 64bd c4f0 7040 bb3d 4f40
000000e0: 8ff6 2b3f 3215 6d40 6721 4940 2b61 7140
000000f0: 98af 7240 c11e 5940 0289 b93f 6e56 5a40
00000100: 3f1c 3840 1523 6f40 c584 6240 e0a9 9b40
00000110: a04e 5840 32ca 573e 5a2b 94bd 00ef 483e
00000120: 92c5 053e 699a 893e c758 2c3e d1e0 213e
00000130: 7b7a 513e 8bb3 393d 4458 853e 5666 543e
00000140: 874e 633e cb5b 303e b309 a33e c90b 6b3e
00000150: 7fdd 0c3e e745 36bd 6576 d83d 681d 693e
00000160: ed3f 713e 9a15 af3e 0a9c 243e c2ba 4f3e
00000170: eb23 ecbe c0e3 a43e 0352 5b3e 171a 663e
00000180: e8fc 443e f30f e63d dc39 6b3e 36ba 513e
00000190: ef34 59bd 5f0d 523e a1b5 fa3d 70de 29bb
000001a0: adf9 e33d de51 6f3e 2d2e ef3d 338b 14bf
000001b0: e1f1 d93e 574c 253e f6c8 5b3e eb88 083e
000001c0: 5e7c 953e a062 3d3e e880 853e 148a b0bc
000001d0: 3a50 693e 1fae ab3e af57 453d 8dcc ed3d
000001e0: 36d1 713e e790 503e 3123 893d a566 bf3e
000001f0: f597 043e 1f92 403e 7cd2 943e 899e 203e
00000200: 66eb aa3e 72ec 3d3e 9b8f 1c3e ccef f1be
00000210: 4376 223e 596e 2e3e f211 c73e 8dc6 4e3e
00000220: 54a0 07bf 2c62 0bbd c1fe b3bf d7aa 82bc
00000230: 2005 0dc0 ced3 bebf c9e7 d3bf c2e6 cfbf
00000240: 3b22 c4bf 2a8e a0bf bd6a b9bf 70be a9bf
00000250: 148d cdbf 6973 dbbf f8a3 133f 9e07 e1bf
00000260: 5905 c6bf e89c bfbe 7f53 23be 1d46 0bc0
00000270: 48ab 12c0 f887 04c0 b728 02c0 1a53 c5bf
00000280: 8c39 97bf be29 3440 aca8 ebbf d6bc a4bf
00000290: e4a1 f5bf a94e ebbf 94a9 aebf db44 e1bf
000002a0: dd8d 0dbe 378b 1b3e 249d e0bf 33bc a43c
000002b0: cd40 07bd a771 9ebf 2317 f2bf 8587 afbe
000002c0: 7749 1b40 dc62 00c0 5400 eebf 3e14 dbbf
000002d0: 0217 1dbe ca7b a5bf f7ff f8bf 1e53 ffbf
000002e0: 52ad 25be 05b3 e4be 74a0 f8bf 12bb 95be
000002f0: 23a5 74be b8f2 3abe 29d5 c5bf 2726 043e
00000300: c032 f7bf 58ee bfbf 7130 d3bf 0f1d fcbf
00000310: 1b72 be3f 8b10 d4bf 2c79 df3f e667 6fbd
00000320: d12f 653f ef96 f1bf 7b60 96be 8398 06c0
00000330: 7aee 6abe 3001 2440 75bc 243d 1648 3440
00000340: de48 2440 55b9 263f 3394 3d40 6ae3 6140
00000350: 96e2 4b40 d020 5d40 ed73 5240 ee73 3640
00000360: b32c 3c40 1d10 5740 006f 6a40 b576 6cc0
00000370: 6858 3840 5e15 3940 7a0c 6640 17c6 893f
00000380: 9707 f93f d989 d23e d6a3 4740 f6c7 4540
00000390: b18d 5940 5798 2b3f 1dcd 9e40 4b2f 3a40
000003a0: 1c10 2e40 5f6a 3640 9a27 4ec0 91ef 0040
000003b0: 2975 7240 76bc 4b40 cc1a 23bf 6177 4040
000003c0: 86b2 6940 b739 4340 762b 2540 097c 3940
000003d0: 41b0 8e3e b122 9640 939a eb3f 91af 4b40
000003e0: a04f 4240 1e92 073e 3f9f 523f 90b1 3b40
000003f0: 6d70 6740 6be1 5140 bdcd a23e cfaf 3b40
2.8421905 1.9169935 3.736406 3.4449136 3.6494503 3.4228735 3.7227 3.4582562
3.061658 3.021826 3.4987233 3.6964455 4.134612 3.3445354 2.9335725 3.8935122
2.120792 3.7403204 4.0026135 3.557271 3.5398426 3.7231178 3.738572 4.9244943
3.154277 2.9004538 3.3985436 3.2052748 0.26228422 3.5756273 3.7394314 3.098972
3.3412542 1.9472245 3.3874168 3.00583 3.0178366 2.8771996 4.6497655 3.8773239
3.7940376 3.4793482 3.7189045 2.9867446 3.3706505 3.8724205 2.9766295 3.8550177
3.262884 3.644807 3.4351997 3.7483659 3.6102176 -0.055861525 3.7646952 3.2381427
0.67173094 3.7044187 3.1426637 3.7715557 3.7919674 3.392502 1.4494936 3.4115252
2.876724 3.7365162 3.5393536 4.8644867 3.379799 0.21073225 -0.07234831 0.19622421
0.13063648 0.26875618 0.16830741 0.15808417 0.20456879 0.04533724 0.26043904 0.20742163
0.22197925 0.17222516 0.31843337 0.22953714 0.13756369 -0.044500258 0.10569457 0.22765124
0.23559542 0.34196168 0.16075149 0.20286086 -0.46121153 0.3220501 0.21418004 0.2247089
0.19237101 0.11233511 0.2297129 0.2048119 -0.053028997 0.20512913 0.12241674 -0.0025919937
0.11131606 0.23371074 0.11678729 -0.580249 0.4256735 0.16142403 0.2146338 0.1333348
0.29196447 0.18494654 0.2607491 -0.021550216 0.2278451 0.3353128 0.048179325 0.116112806
0.23614964 0.20367776 0.06696165 0.37383 0.12948592 0.18805741 0.29066837 0.15685476
0.3338272 0.18547228 0.15289156 -0.47253263 0.15865426 0.17034282 0.3888088 0.20192929
-0.52979016 -0.03402917 -1.406212 -0.015950603 -2.2034378 -1.4908388 -1.655511 -1.6242297
-1.5322946 -1.2543385 -1.4485699 -1.3261242 -1.6058679 -1.7144595 0.5767207 -1.758045
-1.5470382 -0.37424397 -0.1594982 -2.1761544 -2.2917042 -2.0707989 -2.033735 -1.5415986
-1.1814437 2.8150477 -1.841085 -1.2870128 -1.919003 -1.838338 -1.3645501 -1.7599138
-0.13823648 0.15189825 -1.7547956 0.020109272 -0.033020783 -1.2378434 -1.8913311 -0.3428308
2.426359 -2.006034 -1.859385 -1.7115552 -0.15340808 -1.2928402 -1.9453114 -1.994724
-0.16179398 -0.4466783 -1.9423966 -0.29244286 -0.2389112 -0.18256652 -1.5455676 0.12905179
-1.9312363 -1.4994612 -1.6499158 -1.9696368 1.4878572 -1.6567549 1.7458854 -0.058448695
0.8952609 -1.8874186 -0.29370484 -2.1030586 -0.22942534 2.5625725 0.04021879 2.8168998
2.5669475 0.65126544 2.9621704 3.5295053 3.1857047 3.4551277 3.2883255 2.8508258
2.9402282 3.3603585 3.663025 -3.6947453 2.880396 2.8919291 3.5945115 1.0763577
1.9455441 0.41120794 3.1193748 3.0903296 3.3992732 0.6702933 4.9625382 2.9091365
2.7197332 2.8502424 -3.221167 2.014622 3.788401 3.1833777 -0.63712764 3.0072863
3.6515212 3.0503976 2.5807776 2.8981955 0.27868846 4.691735 1.8406547 3.1825907
3.03611 0.13239333 0.8227424 2.9327126 3.616237 3.2793834 0.3179759 2.9326055
